Calibration/Calibration_parameters.npz (npz, 3296 bytes, 11 tensors)

ret3D f8 []
2.36574326558648
00000000: ce68 23ce 0aed 0240

CM1 f8 [3, 3]
683.3956802072789 0.0 700.0146048265746 0.0 748.3758167245004 366.0163210690173 0.0 0.0
1.0
00000000: 806f 625a 2a5b 8540 0000 0000 0000 0000
00000010: 03a4 22e9 1de0 8540 0000 0000 0000 0000
00000020: 27e8 32ac 0163 8740 a49a e1d9 42e0 7640
00000030: 0000 0000 0000 0000 0000 0000 0000 0000
00000040: 0000 0000 0000 f03f

dist1 f8 [1, 5]
0.4392803418247162 0.9763363209976899 -0.046738261090398095 0.024289949656912876 -7.891647204850983
00000000: 406c 7a4b 2b1d dc3f 0aa0 12ab 253e ef3f
00000010: bad8 b5cd 13ee a7bf 3c7a 97ed 76df 983f
00000020: 809e 01f7 0b91 1fc0

CM2 f8 [3, 3]
1373.9568069196803 0.0 581.3651913425865 0.0 1526.3196542174692 366.22118669687734 0.0 0.0
1.0
00000000: 7472 31c5 d377 9540 0000 0000 0000 0000
00000010: 8849 70e9 eb2a 8240 0000 0000 0000 0000
00000020: 3c68 6f53 47d9 9740 60d6 0ffb 89e3 7640
00000030: 0000 0000 0000 0000 0000 0000 0000 0000
00000040: 0000 0000 0000 f03f

dist2 f8 [1, 5]
0.10412022164275644 0.3868864589143129 -0.20709299035868137 0.019521356794058302 -5.717873184528416
00000000: 36d3 ce72 9fa7 ba3f 9957 136c bfc2 d83f
00000010: f922 69ea 0582 cabf de1f 0414 68fd 933f
00000020: 51e6 e825 1adf 16c0

R f8 [3, 3]
0.7586962498168995 0.007934418431714704 -0.6513962277430867 0.1495671101450552 0.9710929293497261 0.18603279853247645 0.6340423330319749 -0.2385698379324564
0.7355778356858313
00000000: 3bf7 915b 3d47 e83f f87b 6a9d eb3f 803f
00000010: 509e dce6 3cd8 e4bf c4ab 50db 0325 c33f
00000020: 9ce2 9d7a 3113 ef3f 7c15 d738 eccf c73f
00000030: 24dc 9425 134a e43f 92af ddd9 7489 cebf
00000040: 04dc 7d87 da89 e73f

T f8 [3, 1]
1947.2910284495463 -266.6932535698169 1164.8377492971554
00000000: 07a4 5c03 2a6d 9e40 2e23 0e91 17ab 70c0
00000010: 1ea6 f3da 5933 9240

E f8 [3, 3]
-343.3162286475406 -1067.5407359002859 -412.8716725909195 -350.90691473347454 473.807215172515 -2191.155035982268 493.5898630714786 1893.1166049802491
188.5370202397441
00000000: ec33 c545 0f75 75c0 01fe abb6 29ae 90c0
00000010: 1a6d f55e f2cd 79c0 8a08 06b9 82ee 75c0
00000020: 97ec 745a ea9c 7d40 1753 e060 4f1e a1c0
00000030: e691 4214 70d9 7e40 e2c2 4b67 7794 9d40
00000040: b6df 1145 2f91 6740

F f8 [3, 3]
3.877904431353325e-07 1.1011328245772006e-06 -0.0003557856729353869 3.5679789084317105e-07 -4.3993093964511873e-07 0.0014338226316810085 -0.0011221382904852597 -0.0031619557537684727
1.0
00000000: 95ef cc67 3006 9a3e 8938 2758 5479 b23e
00000010: 1d79 63d4 1751 37bf 55dd 0fb8 bdf1 973e
00000020: 46b0 f6bb f485 9dbe e5e7 ec53 e37d 573f
00000030: 531e 97d0 9662 52bf 6103 b911 1ae7 69bf
00000040: 0000 0000 0000 f03f

P1 f8 [3, 4]
683.3956802072789 0.0 700.0146048265746 0.0 0.0 748.3758167245004 366.0163210690173 0.0
0.0 0.0 1.0 0.0
00000000: 806f 625a 2a5b 8540 0000 0000 0000 0000
00000010: 03a4 22e9 1de0 8540 0000 0000 0000 0000
00000020: 0000 0000 0000 0000 27e8 32ac 0163 8740
00000030: a49a e1d9 42e0 7640 0000 0000 0000 0000
00000040: 0000 0000 0000 0000 0000 0000 0000 0000
00000050: 0000 0000 0000 f03f 0000 0000 0000 0000

P2 f8 [3, 4]
1411.0260190827973 -127.79465126496898 -467.3509319185573 3352689.8845950877 460.48695545793333 1394.8288949803973 553.3297046219834 19529.108286109193
0.6340423330319749 -0.2385698379324564 0.7355778356858313 1164.8377492971554
00000000: bf16 bfa4 1a0c 9640 13b1 fa90 dbf2 5fc0
00000010: 3895 c96a 9d35 7dc0 6e69 3af1 3894 4941
00000020: eb66 ce91 cac7 7c40 8082 d8c9 50cb 9540
00000030: 1246 2d3c a34a 8140 66dc 28ee 4612 d340
00000040: 24dc 9425 134a e43f 92af ddd9 7489 cebf
00000050: 04dc 7d87 da89 e73f 1ea6 f3da 5933 9240
